{"config": {"input_layers": [["input_1", 0, 0], ["input_2", 0, 0]], "output_layers": [["dense_2", 0, 0]], "name": "model_1", "layers": [{"config": {"batch_input_shape": [null, 56, 112, 1], "dtype": "float32", "sparse": false, "name": "input_1"}, "class_name": "InputLayer", "name": "input_1", "inbound_nodes": []}, {"config": {"padding": [[0, 1], [0, 1]], "data_format": "channels_last", "trainable": true, "name": "Conv1_pad"}, "class_name": "ZeroPadding2D", "name": "Conv1_pad", "inbound_nodes": [[["input_1", 0, 0, {}]]]}, {"config": {"use_bias": false, "kernel_constraint": null, "activity_regularizer": null, "data_format": "channels_last", "kernel_regularizer": null, "name": "Conv1", "bias_constraint": null, "dilation_rate": [1, 1], "strides": [2, 2], "bias_initializer": {"config": {}, "class_name": "Zeros"}, "trainable": true, "kernel_initializer": {"config": {"distribution": "uniform", "mode": "fan_avg", "scale": 1.0, "seed": null}, "class_name": "VarianceScaling"}, "padding": "valid", "filters": 32, "kernel_size": [3, 3], "bias_regularizer": null, "activation": "linear"}, "class_name": "Conv2D", "name": "Conv1", "inbound_nodes": [[["Conv1_pad", 0, 0, {}]]]}, {"config": {"axis": -1, "beta_initializer": {"config": {}, "class_name": "Zeros"}, "name": "bn_Conv1", "epsilon": 0.001, "center": true, "moving_variance_initializer": {"config": {}, "class_name": "Ones"}, "scale": true, "gamma_constraint": null, "beta_regularizer": null, "trainable": true, "gamma_regularizer": null, "momentum": 0.999, "moving_mean_initializer": {"config": {}, "class_name": "Zeros"}, "gamma_initializer": {"config": {}, "class_name": "Ones"}, "beta_constraint": null}, "class_name": "BatchNormalization", "name": "bn_Conv1", "inbound_nodes": [[["Conv1", 0, 0, {}]]]}, {"config": {"negative_slope": 0.0, "max_value": 6.0, "trainable": true, "name": "Conv1_relu", "threshold": 0.0}, "class_name": "ReLU", "name": "Conv1_relu", "inbound_nodes": [[["bn_Conv1", 0, 0, {}]]]}, {"config": {"use_bias": false, "activity_regularizer": null, "depthwise_initializer": {"config": {"distribution": "uniform", "mode": "fan_avg", "scale": 1.0, "seed": null}, "class_name": "VarianceScaling"}, "activation": "linear", "name": "expanded_conv_depthwise", "depthwise_regularizer": null, "dilation_rate": [1, 1], "strides": [1, 1], "bias_initializer": {"config": {}, "class_name": "Zeros"}, "trainable": true, "bias_constraint": null, "padding": "same", "data_format": "channels_last", "kernel_size": [3, 3], "bias_regularizer": null, "depthwise_constraint": null, "depth_multiplier": 1}, "class_name": "DepthwiseConv2D", "name": "expanded_conv_depthwise", "inbound_nodes": [[["Conv1_relu", 0, 0, {}]]]}, {"config": {"axis": -1, "beta_initializer": {"config": {}, "class_name": "Zeros"}, "name": "expanded_conv_depthwise_BN", "epsilon": 0.001, "center": true, "moving_variance_initializer": {"config": {}, "class_name": "Ones"}, "scale": true, "gamma_constraint": null, "beta_regularizer": null, "trainable": true, "gamma_regularizer": null, "momentum": 0.999, "moving_mean_initializer": {"config": {}, "class_name": "Zeros"}, "gamma_initializer": {"config": {}, "class_name": "Ones"}, "beta_constraint": null}, "class_name": "BatchNormalization", "name": "expanded_conv_depthwise_BN", "inbound_nodes": [[["expanded_conv_depthwise", 0, 0, {}]]]}, {"config": {"negative_slope": 0.0, "max_value": 6.0, "trainable": true, "name": "expanded_conv_depthwise_relu", "threshold": 0.0}, "class_name": "ReLU", "name": "expanded_conv_depthwise_relu", "inbound_nodes": [[["expanded_conv_depthwise_BN", 0, 0, {}]]]}, {"config": {"use_bias": false, "kernel_constraint": null, "activity_regularizer": null, "data_format": "channels_last", "kernel_regularizer": null, "name": "expanded_conv_project", "bias_constraint": null, "dilation_rate": [1, 1], "strides": [1, 1], "bias_initializer": {"config": {}, "class_name": "Zeros"}, "trainable": true, "kernel_initializer": {"config": {"distribution": "uniform", "mode": "fan_avg", "scale": 1.0, "seed": null}, "class_name": "VarianceScaling"}, "padding": "same", "filters": 16, "kernel_size": [1, 1], "bias_regularizer": null, "activation": "linear"}, "class_name": "Conv2D", "name": "expanded_conv_project", "inbound_nodes": [[["expanded_conv_depthwise_relu", 0, 0, {}]]]}, {"config": {"axis": -1, "beta_initializer": {"config": {}, "class_name": "Zeros"}, "name": "expanded_conv_project_BN", "epsilon": 0.001, "center": true, "moving_variance_initializer": {"config": {}, "class_name": "Ones"}, "scale": true, "gamma_constraint": null, "beta_regularizer": null, "trainable": true, "gamma_regularizer": null, "momentum": 0.999, "moving_mean_initializer": {"config": {}, "class_name": "Zeros"}, "gamma_initializer": {"config": {}, "class_name": "Ones"}, "beta_constraint": null}, "class_name": "BatchNormalization", "name": "expanded_conv_project_BN", "inbound_nodes": [[["expanded_conv_project", 0, 0, {}]]]}, {"config": {"use_bias": false, "kernel_constraint": null, "activity_regularizer": null, "data_format": "channels_last", "kernel_regularizer": null, "name": "block_1_expand", "bias_constraint": null, "dilation_rate": [1, 1], "strides": [1, 1], "bias_initializer": {"config": {}, "class_name": "Zeros"}, "trainable": true, "kernel_initializer": {"config": {"distribution": "uniform", "mode": "fan_avg", "scale": 1.0, "seed": null}, "class_name": "VarianceScaling"}, "padding": "same", "filters": 96, "kernel_size": [1, 1], "bias_regularizer": null, "activation": "linear"}, "class_name": "Conv2D", "name": "block_1_expand", "inbound_nodes": [[["expanded_conv_project_BN", 0, 0, {}]]]}, {"config": {"axis": -1, "beta_initializer": {"config": {}, "class_name": "Zeros"}, "name": "block_1_expand_BN", "epsilon": 0.001, "center": true, "moving_variance_initializer": {"config": {}, "class_name": "Ones"}, "scale": true, "gamma_constraint": null, "beta_regularizer": null, "trainable": true, "gamma_regularizer": null, "momentum": 0.999, "moving_mean_initializer": {"config": {}, "class_name": "Zeros"}, "gamma_initializer": {"config": {}, "class_name": "Ones"}, "beta_constraint": null}, "class_name": "BatchNormalization", "name": "block_1_expand_BN", "inbound_nodes": [[["block_1_expand", 0, 0, {}]]]}, {"config": {"negative_slope": 0.0, "max_value": 6.0, "trainable": true, "name": "block_1_expand_relu", "threshold": 0.0}, "class_name": "ReLU", "name": "block_1_expand_relu", "inbound_nodes": [[["block_1_expand_BN", 0, 0, {}]]]}, {"config": {"padding": [[0, 1], [0, 1]], "data_format": "channels_last", "trainable": true, "name": "block_1_pad"}, "class_name": "ZeroPadding2D", "name": "block_1_pad", "inbound_nodes": [[["block_1_expand_relu", 0, 0, {}]]]}, {"config": {"use_bias": false, "activity_regularizer": null, "depthwise_initializer": {"config": {"distribution": "uniform", "mode": "fan_avg", "scale": 1.0, "seed": null}, "class_name": "VarianceScaling"}, "activation": "linear", "name": "block_1_depthwise", "depthwise_regularizer": null, "dilation_rate": [1, 1], "strides": [2, 2], "bias_initializer": {"config": {}, "class_name": "Zeros"}, "trainable": true, "bias_constraint": null, "padding": "valid", "data_format": "channels_last", "kernel_size": [3, 3], "bias_regularizer": null, "depthwise_constraint": null, "depth_multiplier": 1}, "class_name": "DepthwiseConv2D", "name": "block_1_depthwise", "inbound_nodes": [[["block_1_pad", 0, 0, {}]]]}, {"config": {"axis": -1, "beta_initializer": {"config": {}, "class_name": "Zeros"}, "name": "block_1_depthwise_BN", "epsilon": 0.001, "center": true, "moving_variance_initializer": {"config": {}, "class_name": "Ones"}, "scale": true, "gamma_constraint": null, "beta_regularizer": null, "trainable": true, "gamma_regularizer": null, "momentum": 0.999, "moving_mean_initializer": {"config": {}, "class_name": "Zeros"}, "gamma_initializer": {"config": {}, "class_name": "Ones"}, "beta_constraint": null}, "class_name": "BatchNormalization", "name": "block_1_depthwise_BN", "inbound_nodes": [[["block_1_depthwise", 0, 0, {}]]]}, {"config": {"negative_slope": 0.0, "max_value": 6.0, "trainable": true, "name": "block_1_depthwise_relu", "threshold": 0.0}, "class_name": "ReLU", "name": "block_1_depthwise_relu", "inbound_nodes": [[["block_1_depthwise_BN", 0, 0, {}]]]}, {"config": {"use_bias": false, "kernel_constraint": null, "activity_regularizer": null, "data_format": "channels_last", "kernel_regularizer": null, "name": "block_1_project", "bias_constraint": null, "dilation_rate": [1, 1], "strides": [1, 1], "bias_initializer": {"config": {}, "class_name": "Zeros"}, "trainable": true, "kernel_initializer": {"config": {"distribution": "uniform", "mode": "fan_avg", "scale": 1.0, "seed": null}, "class_name": "VarianceScaling"}, "padding": "same", "filters": 24, "kernel_size": [1, 1], "bias_regularizer": null, "activation": "linear"}, "class_name": "Conv2D", "name": "block_1_project", "inbound_nodes": [[["block_1_depthwise_relu", 0, 0, {}]]]}, {"config": {"axis": -1, "beta_initializer": {"config": {}, "class_name": "Zeros"}, "name": "block_1_project_BN", "epsilon": 0.001, "center": true, "moving_variance_initializer": {"config": {}, "class_name": "Ones"}, "scale": true, "gamma_constraint": null, "beta_regularizer": null, "trainable": true, "gamma_regularizer": null, "momentum": 0.999, "moving_mean_initializer": {"config": {}, "class_name": "Zeros"}, "gamma_initializer": {"config": {}, "class_name": "Ones"}, "beta_constraint": null}, "class_name": "BatchNormalization", "name": "block_1_project_BN", "inbound_nodes": [[["block_1_project", 0, 0, {}]]]}, {"config": {"use_bias": false, "kernel_constraint": null, "activity_regularizer": null, "data_format": "channels_last", "kernel_regularizer": null, "name": "block_2_expand", "bias_constraint": null, "dilation_rate": [1, 1], "strides": [1, 1], "bias_initializer": {"config": {}, "class_name": "Zeros"}, "trainable": true, "kernel_initializer": {"config": {"distribution": "uniform", "mode": "fan_avg", "scale": 1.0, "seed": null}, "class_name": "VarianceScaling"}, "padding": "same", "filters": 144, "kernel_size": [1, 1], "bias_regularizer": null, "activation": "linear"}, "class_name": "Conv2D", "name": "block_2_expand", "inbound_nodes": [[["block_1_project_BN", 0, 0, {}]]]}, {"config": {"axis": -1, "beta_initializer": {"config": {}, "class_name": "Zeros"}, "name": "block_2_expand_BN", "epsilon": 0.001, "center": true, "moving_variance_initializer": {"config": {}, "class_name": "Ones"}, "scale": true, "gamma_constraint": null, "beta_regularizer": null, "trainable": true, "gamma_regularizer": null, "momentum": 0.999, "moving_mean_initializer": {"config": {}, "class_name": "Zeros"}, "gamma_initializer": {"config": {}, "class_name": "Ones"}, "beta_constraint": null}, "class_name": "BatchNormalization", "name": "block_2_expand_BN", "inbound_nodes": [[["block_2_expand", 0, 0, {}]]]}, {"config": {"negative_slope": 0.0, "max_value": 6.0, "trainable": true, "name": "block_2_expand_relu", "threshold": 0.0}, "class_name": "ReLU", "name": "block_2_expand_relu", "inbound_nodes": [[["block_2_expand_BN", 0, 0, {}]]]}, {"config": {"use_bias": false, "activity_regularizer": null, "depthwise_initializer": {"config": {"distribution": "uniform", "mode": "fan_avg", "scale": 1.0, "seed": null}, "class_name": "VarianceScaling"}, "activation": "linear", "name": "block_2_depthwise", "depthwise_regularizer": null, "dilation_rate": [1, 1], "strides": [1, 1], "bias_initializer": {"config": {}, "class_name": "Zeros"}, "trainable": true, "bias_constraint": null, "padding": "same", "data_format": "channels_last", "kernel_size": [3, 3], "bias_regularizer": null, "depthwise_constraint": null, "depth_multiplier": 1}, "class_name": "DepthwiseConv2D", "name": "block_2_depthwise", "inbound_nodes": [[["block_2_expand_relu", 0, 0, {}]]]}, {"config": {"axis": -1, "beta_initializer": {"config": {}, "class_name": "Zeros"}, "name": "block_2_depthwise_BN", "epsilon": 0.001, "center": true, "moving_variance_initializer": {"config": {}, "class_name": "Ones"}, "scale": true, "gamma_constraint": null, "beta_regularizer": null, "trainable": true, "gamma_regularizer": null, "momentum": 0.999, "moving_mean_initializer": {"config": {}, "class_name": "Zeros"}, "gamma_initializer": {"config": {}, "class_name": "Ones"}, "beta_constraint": null}, "class_name": "BatchNormalization", "name": "block_2_depthwise_BN", "inbound_nodes": [[["block_2_depthwise", 0, 0, {}]]]}, {"config": {"negative_slope": 0.0, "max_value": 6.0, "trainable": true, "name": "block_2_depthwise_relu", "threshold": 0.0}, "class_name": "ReLU", "name": "block_2_depthwise_relu", "inbound_nodes": [[["block_2_depthwise_BN", 0, 0, {}]]]}, {"config": {"use_bias": false, "kernel_constraint": null, "activity_regularizer": null, "data_format": "channels_last", "kernel_regularizer": null, "name": "block_2_project", "bias_constraint": null, "dilation_rate": [1, 1], "strides": [1, 1], "bias_initializer": {"config": {}, "class_name": "Zeros"}, "trainable": true, "kernel_initializer": {"config": {"distribution": "uniform", "mode": "fan_avg", "scale": 1.0, "seed": null}, "class_name": "VarianceScaling"}, "padding": "same", "filters": 24, "kernel_size": [1, 1], "bias_regularizer": null, "activation": "linear"}, "class_name": "Conv2D", "name": "block_2_project", "inbound_nodes": [[["block_2_depthwise_relu", 0, 0, {}]]]}, {"config": {"axis": -1, "beta_initializer": {"config": {}, "class_name": "Zeros"}, "name": "block_2_project_BN", "epsilon": 0.001, "center": true, "moving_variance_initializer": {"config": {}, "class_name": "Ones"}, "scale": true, "gamma_constraint": null, "beta_regularizer": null, "trainable": true, "gamma_regularizer": null, "momentum": 0.999, "moving_mean_initializer": {"config": {}, "class_name": "Zeros"}, "gamma_initializer": {"config": {}, "class_name": "Ones"}, "beta_constraint": null}, "class_name": "BatchNormalization", "name": "block_2_project_BN", "inbound_nodes": [[["block_2_project", 0, 0, {}]]]}, {"config": {"trainable": true, "name": "block_2_add"}, "class_name": "Add", "name": "block_2_add", "inbound_nodes": [[["block_1_project_BN", 0, 0, {}], ["block_2_project_BN", 0, 0, {}]]]}, {"config": {"use_bias": false, "kernel_constraint": null, "activity_regularizer": null, "data_format": "channels_last", "kernel_regularizer": null, "name": "block_3_expand", "bias_constraint": null, "dilation_rate": [1, 1], "strides": [1, 1], "bias_initializer": {"config": {}, "class_name": "Zeros"}, "trainable": true, "kernel_initializer": {"config": {"distribution": "uniform", "mode": "fan_avg", "scale": 1.0, "seed": null}, "class_name": "VarianceScaling"}, "padding": "same", "filters": 144, "kernel_size": [1, 1], "bias_regularizer": null, "activation": "linear"}, "class_name": "Conv2D", "name": "block_3_expand", "inbound_nodes": [[["block_2_add", 0, 0, {}]]]}, {"config": {"axis": -1, "beta_initializer": {"config": {}, "class_name": "Zeros"}, "name": "block_3_expand_BN", "epsilon": 0.001, "center": true, "moving_variance_initializer": {"config": {}, "class_name": "Ones"}, "scale": true, "gamma_constraint": null, "beta_regularizer": null, "trainable": true, "gamma_regularizer": null, "momentum": 0.999, "moving_mean_initializer": {"config": {}, "class_name": "Zeros"}, "gamma_initializer": {"config": {}, "class_name": "Ones"}, "beta_constraint": null}, "class_name": "BatchNormalization", "name": "block_3_expand_BN", "inbound_nodes": [[["block_3_expand", 0, 0, {}]]]}, {"config": {"negative_slope": 0.0, "max_value": 6.0, "trainable": true, "name": "block_3_expand_relu", "threshold": 0.0}, "class_name": "ReLU", "name": "block_3_expand_relu", "inbound_nodes": [[["block_3_expand_BN", 0, 0, {}]]]}, {"config": {"padding": [[0, 1], [0, 1]], "data_format": "channels_last", "trainable": true, "name": "block_3_pad"}, "class_name": "ZeroPadding2D", "name": "block_3_pad", "inbound_nodes": [[["block_3_expand_relu", 0, 0, {}]]]}, {"config": {"use_bias": false, "activity_regularizer": null, "depthwise_initializer": {"config": {"distribution": "uniform", "mode": "fan_avg", "scale": 1.0, "seed": null}, "class_name": "VarianceScaling"}, "activation": "linear", "name": "block_3_depthwise", "depthwise_regularizer": null, "dilation_rate": [1, 1], "strides": [2, 2], "bias_initializer": {"config": {}, "class_name": "Zeros"}, "trainable": true, "bias_constraint": null, "padding": "valid", "data_format": "channels_last", "kernel_size": [3, 3], "bias_regularizer": null, "depthwise_constraint": null, "depth_multiplier": 1}, "class_name": "DepthwiseConv2D", "name": "block_3_depthwise", "inbound_nodes": [[["block_3_pad", 0, 0, {}]]]}, {"config": {"axis": -1, "beta_initializer": {"config": {}, "class_name": "Zeros"}, "name": "block_3_depthwise_BN", "epsilon": 0.001, "center": true, "moving_variance_initializer": {"config": {}, "class_name": "Ones"}, "scale": true, "gamma_constraint": null, "beta_regularizer": null, "trainable": true, "gamma_regularizer": null, "momentum": 0.999, "moving_mean_initializer": {"config": {}, "class_name": "Zeros"}, "gamma_initializer": {"config": {}, "class_name": "Ones"}, "beta_constraint": null}, "class_name": "BatchNormalization", "name": "block_3_depthwise_BN", "inbound_nodes": [[["block_3_depthwise", 0, 0, {}]]]}, {"config": {"negative_slope": 0.0, "max_value": 6.0, "trainable": true, "name": "block_3_depthwise_relu", "threshold": 0.0}, "class_name": "ReLU", "name": "block_3_depthwise_relu", "inbound_nodes": [[["block_3_depthwise_BN", 0, 0, {}]]]}, {"config": {"use_bias": false, "kernel_constraint": null, "activity_regularizer": null, "data_format": "channels_last", "kernel_regularizer": null, "name": "block_3_project", "bias_constraint": null, "dilation_rate": [1, 1], "strides": [1, 1], "bias_initializer": {"config": {}, "class_name": "Zeros"}, "trainable": true, "kernel_initializer": {"config": {"distribution": "uniform", "mode": "fan_avg", "scale": 1.0, "seed": null}, "class_name": "VarianceScaling"}, "padding": "same", "filters": 32, "kernel_size": [1, 1], "bias_regularizer": null, "activation": "linear"}, "class_name": "Conv2D", "name": "block_3_project", "inbound_nodes": [[["block_3_depthwise_relu", 0, 0, {}]]]}, {"config": {"axis": -1, "beta_initializer": {"config": {}, "class_name": "Zeros"}, "name": "block_3_project_BN", "epsilon": 0.001, "center": true, "moving_variance_initializer": {"config": {}, "class_name": "Ones"}, "scale": true, "gamma_constraint": null, "beta_regularizer": null, "trainable": true, "gamma_regularizer": null, "momentum": 0.999, "moving_mean_initializer": {"config": {}, "class_name": "Zeros"}, "gamma_initializer": {"config": {}, "class_name": "Ones"}, "beta_constraint": null}, "class_name": "BatchNormalization", "name": "block_3_project_BN", "inbound_nodes": [[["block_3_project", 0, 0, {}]]]}, {"config": {"use_bias": false, "kernel_constraint": null, "activity_regularizer": null, "data_format": "channels_last", "kernel_regularizer": null, "name": "block_4_expand", "bias_constraint": null, "dilation_rate": [1, 1], "strides": [1, 1], "bias_initializer": {"config": {}, "class_name": "Zeros"}, "trainable": true, "kernel_initializer": {"config": {"distribution": "uniform", "mode": "fan_avg", "scale": 1.0, "seed": null}, "class_name": "VarianceScaling"}, "padding": "same", "filters": 192, "kernel_size": [1, 1], "bias_regularizer": null, "activation": "linear"}, "class_name": "Conv2D", "name": "block_4_expand", "inbound_nodes": [[["block_3_project_BN", 0, 0, {}]]]}, {"config": {"axis": -1, "beta_initializer": {"config": {}, "class_name": "Zeros"}, "name": "block_4_expand_BN", "epsilon": 0.001, "center": true, "moving_variance_initializer": {"config": {}, "class_name": "Ones"}, "scale": true, "gamma_constraint": null, "beta_regularizer": null, "trainable": true, "gamma_regularizer": null, "momentum": 0.999, "moving_mean_initializer": {"config": {}, "class_name": "Zeros"}, "gamma_initializer": {"config": {}, "class_name": "Ones"}, "beta_constraint": null}, "class_name": "BatchNormalization", "name": "block_4_expand_BN", "inbound_nodes": [[["block_4_expand", 0, 0, {}]]]}, {"config": {"negative_slope": 0.0, "max_value": 6.0, "trainable": true, "name": "block_4_expand_relu", "threshold": 0.0}, "class_name": "ReLU", "name": "block_4_expand_relu", "inbound_nodes": [[["block_4_expand_BN", 0, 0, {}]]]}, {"config": {"use_bias": false, "activity_regularizer": null, "depthwise_initializer": {"config": {"distribution": "uniform", "mode": "fan_avg", "scale": 1.0, "seed": null}, "class_name": "VarianceScaling"}, "activation": "linear", "name": "block_4_depthwise", "depthwise_regularizer": null, "dilation_rate": [1, 1], "strides": [1, 1], "bias_initializer": {"config": {}, "class_name": "Zeros"}, "trainable": true, "bias_constraint": null, "padding": "same", "data_format": "channels_last", "kernel_size": [3, 3], "bias_regularizer": null, "depthwise_constraint": null, "depth_multiplier": 1}, "class_name": "DepthwiseConv2D", "name": "block_4_depthwise", "inbound_nodes": [[["block_4_expand_relu", 0, 0, {}]]]}, {"config": {"axis": -1, "beta_initializer": {"config": {}, "class_name": "Zeros"}, "name": "block_4_depthwise_BN", "epsilon": 0.001, "center": true, "moving_variance_initializer": {"config": {}, "class_name": "Ones"}, "scale": true, "gamma_constraint": null, "beta_regularizer": null, "trainable": true, "gamma_regularizer": null, "momentum": 0.999, "moving_mean_initializer": {"config": {}, "class_name": "Zeros"}, "gamma_initializer": {"config": {}, "class_name": "Ones"}, "beta_constraint": null}, "class_name": "BatchNormalization", "name": "block_4_depthwise_BN", "inbound_nodes": [[["block_4_depthwise", 0, 0, {}]]]}, {"config": {"negative_slope": 0.0, "max_value": 6.0, "trainable": true, "name": "block_4_depthwise_relu", "threshold": 0.0}, "class_name": "ReLU", "name": "block_4_depthwise_relu", "inbound_nodes": [[["block_4_depthwise_BN", 0, 0, {}]]]}, {"config": {"use_bias": false, "kernel_constraint": null, "activity_regularizer": null, "data_format": "channels_last", "kernel_regularizer": null, "name": "block_4_project", "bias_constraint": null, "dilation_rate": [1, 1], "strides": [1, 1], "bias_initializer": {"config": {}, "class_name": "Zeros"}, "trainable": true, "kernel_initializer": {"config": {"distribution": "uniform", "mode": "fan_avg", "scale": 1.0, "seed": null}, "class_name": "VarianceScaling"}, "padding": "same", "filters": 32, "kernel_size": [1, 1], "bias_regularizer": null, "activation": "linear"}, "class_name": "Conv2D", "name": "block_4_project", "inbound_nodes": [[["block_4_depthwise_relu", 0, 0, {}]]]}, {"config": {"axis": -1, "beta_initializer": {"config": {}, "class_name": "Zeros"}, "name": "block_4_project_BN", "epsilon": 0.001, "center": true, "moving_variance_initializer": {"config": {}, "class_name": "Ones"}, "scale": true, "gamma_constraint": null, "beta_regularizer": null, "trainable": true, "gamma_regularizer": null, "momentum": 0.999, "moving_mean_initializer": {"config": {}, "class_name": "Zeros"}, "gamma_initializer": {"config": {}, "class_name": "Ones"}, "beta_constraint": null}, "class_name": "BatchNormalization", "name": "block_4_project_BN", "inbound_nodes": [[["block_4_project", 0, 0, {}]]]}, {"config": {"trainable": true, "name": "block_4_add"}, "class_name": "Add", "name": "block_4_add", "inbound_nodes": [[["block_3_project_BN", 0, 0, {}], ["block_4_project_BN", 0, 0, {}]]]}, {"config": {"use_bias": false, "kernel_constraint": null, "activity_regularizer": null, "data_format": "channels_last", "kernel_regularizer": null, "name": "block_5_expand", "bias_constraint": null, "dilation_rate": [1, 1], "strides": [1, 1], "bias_initializer": {"config": {}, "class_name": "Zeros"}, "trainable": true, "kernel_initializer": {"config": {"distribution": "uniform", "mode": "fan_avg", "scale": 1.0, "seed": null}, "class_name": "VarianceScaling"}, "padding": "same", "filters": 192, "kernel_size": [1, 1], "bias_regularizer": null, "activation": "linear"}, "class_name": "Conv2D", "name": "block_5_expand", "inbound_nodes": [[["block_4_add", 0, 0, {}]]]}, {"config": {"axis": -1, "beta_initializer": {"config": {}, "class_name": "Zeros"}, "name": "block_5_expand_BN", "epsilon": 0.001, "center": true, "moving_variance_initializer": {"config": {}, "class_name": "Ones"}, "scale": true, "gamma_constraint": null, "beta_regularizer": null, "trainable": true, "gamma_regularizer": null, "momentum": 0.999, "moving_mean_initializer": {"config": {}, "class_name": "Zeros"}, "gamma_initializer": {"config": {}, "class_name": "Ones"}, "beta_constraint": null}, "class_name": "BatchNormalization", "name": "block_5_expand_BN", "inbound_nodes": [[["block_5_expand", 0, 0, {}]]]}, {"config": {"negative_slope": 0.0, "max_value": 6.0, "trainable": true, "name": "block_5_expand_relu", "threshold": 0.0}, "class_name": "ReLU", "name": "block_5_expand_relu", "inbound_nodes": [[["block_5_expand_BN", 0, 0, {}]]]}, {"config": {"use_bias": false, "activity_regularizer": null, "depthwise_initializer": {"config": {"distribution": "uniform", "mode": "fan_avg", "scale": 1.0, "seed": null}, "class_name": "VarianceScaling"}, "activation": "linear", "name": "block_5_depthwise", "depthwise_regularizer": null, "dilation_rate": [1, 1], "strides": [1, 1], "bias_initializer": {"config": {}, "class_name": "Zeros"}, "trainable": true, "bias_constraint": null, "padding": "same", "data_format": "channels_last", "kernel_size": [3, 3], "bias_regularizer": null, "depthwise_constraint": null, "depth_multiplier": 1}, "class_name": "DepthwiseConv2D", "name": "block_5_depthwise", "inbound_nodes": [[["block_5_expand_relu", 0, 0, {}]]]}, {"config": {"axis": -1, "beta_initializer": {"config": {}, "class_name": "Zeros"}, "name": "block_5_depthwise_BN", "epsilon": 0.001, "center": true, "moving_variance_initializer": {"config": {}, "class_name": "Ones"}, "scale": true, "gamma_constraint": null, "beta_regularizer": null, "trainable": true, "gamma_regularizer": null, "momentum": 0.999, "moving_mean_initializer": {"config": {}, "class_name": "Zeros"}, "gamma_initializer": {"config": {}, "class_name": "Ones"}, "beta_constraint": null}, "class_name": "BatchNormalization", "name": "block_5_depthwise_BN", "inbound_nodes": [[["block_5_depthwise", 0, 0, {}]]]}, {"config": {"negative_slope": 0.0, "max_value": 6.0, "trainable": true, "name": "block_5_depthwise_relu", "threshold": 0.0}, "class_name": "ReLU", "name": "block_5_depthwise_relu", "inbound_nodes": [[["block_5_depthwise_BN", 0, 0, {}]]]}, {"config": {"use_bias": false, "kernel_constraint": null, "activity_regularizer": null, "data_format": "channels_last", "kernel_regularizer": null, "name": "block_5_project", "bias_constraint": null, "dilation_rate": [1, 1], "strides": [1, 1], "bias_initializer": {"config": {}, "class_name": "Zeros"}, "trainable": true, "kernel_initializer": {"config": {"distribution": "uniform", "mode": "fan_avg", "scale": 1.0, "seed": null}, "class_name": "VarianceScaling"}, "padding": "same", "filters": 32, "kernel_size": [1, 1], "bias_regularizer": null, "activation": "linear"}, "class_name": "Conv2D", "name": "block_5_project", "inbound_nodes": [[["block_5_depthwise_relu", 0, 0, {}]]]}, {"config": {"axis": -1, "beta_initializer": {"config": {}, "class_name": "Zeros"}, "name": "block_5_project_BN", "epsilon": 0.001, "center": true, "moving_variance_initializer": {"config": {}, "class_name": "Ones"}, "scale": true, "gamma_constraint": null, "beta_regularizer": null, "trainable": true, "gamma_regularizer": null, "momentum": 0.999, "moving_mean_initializer": {"config": {}, "class_name": "Zeros"}, "gamma_initializer": {"config": {}, "class_name": "Ones"}, "beta_constraint": null}, "class_name": "BatchNormalization", "name": "block_5_project_BN", "inbound_nodes": [[["block_5_project", 0, 0, {}]]]}, {"config": {"trainable": true, "name": "block_5_add"}, "class_name": "Add", "name": "block_5_add", "inbound_nodes": [[["block_4_add", 0, 0, {}], ["block_5_project_BN", 0, 0, {}]]]}, {"config": {"use_bias": false, "kernel_constraint": null, "activity_regularizer": null, "data_format": "channels_last", "kernel_regularizer": null, "name": "block_6_expand", "bias_constraint": null, "dilation_rate": [1, 1], "strides": [1, 1], "bias_initializer": {"config": {}, "class_name": "Zeros"}, "trainable": true, "kernel_initializer": {"config": {"distribution": "uniform", "mode": "fan_avg", "scale": 1.0, "seed": null}, "class_name": "VarianceScaling"}, "padding": "same", "filters": 192, "kernel_size": [1, 1], "bias_regularizer": null, "activation": "linear"}, "class_name": "Conv2D", "name": "block_6_expand", "inbound_nodes": [[["block_5_add", 0, 0, {}]]]}, {"config": {"axis": -1, "beta_initializer": {"config": {}, "class_name": "Zeros"}, "name": "block_6_expand_BN", "epsilon": 0.001, "center": true, "moving_variance_initializer": {"config": {}, "class_name": "Ones"}, "scale": true, "gamma_constraint": null, "beta_regularizer": null, "trainable": true, "gamma_regularizer": null, "momentum": 0.999, "moving_mean_initializer": {"config": {}, "class_name": "Zeros"}, "gamma_initializer": {"config": {}, "class_name": "Ones"}, "beta_constraint": null}, "class_name": "BatchNormalization", "name": "block_6_expand_BN", "inbound_nodes": [[["block_6_expand", 0, 0, {}]]]}, {"config": {"negative_slope": 0.0, "max_value": 6.0, "trainable": true, "name": "block_6_expand_relu", "threshold": 0.0}, "class_name": "ReLU", "name": "block_6_expand_relu", "inbound_nodes": [[["block_6_expand_BN", 0, 0, {}]]]}, {"config": {"padding": [[1, 1], [0, 1]], "data_format": "channels_last", "trainable": true, "name": "block_6_pad"}, "class_name": "ZeroPadding2D", "name": "block_6_pad", "inbound_nodes": [[["block_6_expand_relu", 0, 0, {}]]]}, {"config": {"use_bias": false, "activity_regularizer": null, "depthwise_initializer": {"config": {"distribution": "uniform", "mode": "fan_avg", "scale": 1.0, "seed": null}, "class_name": "VarianceScaling"}, "activation": "linear", "name": "block_6_depthwise", "depthwise_regularizer": null, "dilation_rate": [1, 1], "strides": [2, 2], "bias_initializer": {"config": {}, "class_name": "Zeros"}, "trainable": true, "bias_constraint": null, "padding": "valid", "data_format": "channels_last", "kernel_size": [3, 3], "bias_regularizer": null, "depthwise_constraint": null, "depth_multiplier": 1}, "class_name": "DepthwiseConv2D", "name": "block_6_depthwise", "inbound_nodes": [[["block_6_pad", 0, 0, {}]]]}, {"config": {"axis": -1, "beta_initializer": {"config": {}, "class_name": "Zeros"}, "name": "block_6_depthwise_BN", "epsilon": 0.001, "center": true, "moving_variance_initializer": {"config": {}, "class_name": "Ones"}, "scale": true, "gamma_constraint": null, "beta_regularizer": null, "trainable": true, "gamma_regularizer": null, "momentum": 0.999, "moving_mean_initializer": {"config": {}, "class_name": "Zeros"}, "gamma_initializer": {"config": {}, "class_name": "Ones"}, "beta_constraint": null}, "class_name": "BatchNormalization", "name": "block_6_depthwise_BN", "inbound_nodes": [[["block_6_depthwise", 0, 0, {}]]]}, {"config": {"negative_slope": 0.0, "max_value": 6.0, "trainable": true, "name": "block_6_depthwise_relu", "threshold": 0.0}, "class_name": "ReLU", "name": "block_6_depthwise_relu", "inbound_nodes": [[["block_6_depthwise_BN", 0, 0, {}]]]}, {"config": {"use_bias": false, "kernel_constraint": null, "activity_regularizer": null, "data_format": "channels_last", "kernel_regularizer": null, "name": "block_6_project", "bias_constraint": null, "dilation_rate": [1, 1], "strides": [1, 1], "bias_initializer": {"config": {}, "class_name": "Zeros"}, "trainable": true, "kernel_initializer": {"config": {"distribution": "uniform", "mode": "fan_avg", "scale": 1.0, "seed": null}, "class_name": "VarianceScaling"}, "padding": "same", "filters": 64, "kernel_size": [1, 1], "bias_regularizer": null, "activation": "linear"}, "class_name": "Conv2D", "name": "block_6_project", "inbound_nodes": [[["block_6_depthwise_relu", 0, 0, {}]]]}, {"config": {"axis": -1, "beta_initializer": {"config": {}, "class_name": "Zeros"}, "name": "block_6_project_BN", "epsilon": 0.001, "center": true, "moving_variance_initializer": {"config": {}, "class_name": "Ones"}, "scale": true, "gamma_constraint": null, "beta_regularizer": null, "trainable": true, "gamma_regularizer": null, "momentum": 0.999, "moving_mean_initializer": {"config": {}, "class_name": "Zeros"}, "gamma_initializer": {"config": {}, "class_name": "Ones"}, "beta_constraint": null}, "class_name": "BatchNormalization", "name": "block_6_project_BN", "inbound_nodes": [[["block_6_project", 0, 0, {}]]]}, {"config": {"use_bias": false, "kernel_constraint": null, "activity_regularizer": null, "data_format": "channels_last", "kernel_regularizer": null, "name": "block_7_expand", "bias_constraint": null, "dilation_rate": [1, 1], "strides": [1, 1], "bias_initializer": {"config": {}, "class_name": "Zeros"}, "trainable": true, "kernel_initializer": {"config": {"distribution": "uniform", "mode": "fan_avg", "scale": 1.0, "seed": null}, "class_name": "VarianceScaling"}, "padding": "same", "filters": 384, "kernel_size": [1, 1], "bias_regularizer": null, "activation": "linear"}, "class_name": "Conv2D", "name": "block_7_expand", "inbound_nodes": [[["block_6_project_BN", 0, 0, {}]]]}, {"config": {"axis": -1, "beta_initializer": {"config": {}, "class_name": "Zeros"}, "name": "block_7_expand_BN", "epsilon": 0.001, "center": true, "moving_variance_initializer": {"config": {}, "class_name": "Ones"}, "scale": true, "gamma_constraint": null, "beta_regularizer": null, "trainable": true, "gamma_regularizer": null, "momentum": 0.999, "moving_mean_initializer": {"config": {}, "class_name": "Zeros"}, "gamma_initializer": {"config": {}, "class_name": "Ones"}, "beta_constraint": null}, "class_name": "BatchNormalization", "name": "block_7_expand_BN", "inbound_nodes": [[["block_7_expand", 0, 0, {}]]]}, {"config": {"negative_slope": 0.0, "max_value": 6.0, "trainable": true, "name": "block_7_expand_relu", "threshold": 0.0}, "class_name": "ReLU", "name": "block_7_expand_relu", "inbound_nodes": [[["block_7_expand_BN", 0, 0, {}]]]}, {"config": {"use_bias": false, "activity_regularizer": null, "depthwise_initializer": {"config": {"distribution": "uniform", "mode": "fan_avg", "scale": 1.0, "seed": null}, "class_name": "VarianceScaling"}, "activation": "linear", "name": "block_7_depthwise", "depthwise_regularizer": null, "dilation_rate": [1, 1], "strides": [1, 1], "bias_initializer": {"config": {}, "class_name": "Zeros"}, "trainable": true, "bias_constraint": null, "padding": "same", "data_format": "channels_last", "kernel_size": [3, 3], "bias_regularizer": null, "depthwise_constraint": null, "depth_multiplier": 1}, "class_name": "DepthwiseConv2D", "name": "block_7_depthwise", "inbound_nodes": [[["block_7_expand_relu", 0, 0, {}]]]}, {"config": {"axis": -1, "beta_initializer": {"config": {}, "class_name": "Zeros"}, "name": "block_7_depthwise_BN", "epsilon": 0.001, "center": true, "moving_variance_initializer": {"config": {}, "class_name": "Ones"}, "scale": true, "gamma_constraint": null, "beta_regularizer": null, "trainable": true, "gamma_regularizer": null, "momentum": 0.999, "moving_mean_initializer": {"config": {}, "class_name": "Zeros"}, "gamma_initializer": {"config": {}, "class_name": "Ones"}, "beta_constraint": null}, "class_name": "BatchNormalization", "name": "block_7_depthwise_BN", "inbound_nodes": [[["block_7_depthwise", 0, 0, {}]]]}, {"config": {"negative_slope": 0.0, "max_value": 6.0, "trainable": true, "name": "block_7_depthwise_relu", "threshold": 0.0}, "class_name": "ReLU", "name": "block_7_depthwise_relu", "inbound_nodes": [[["block_7_depthwise_BN", 0, 0, {}]]]}, {"config": {"use_bias": false, "kernel_constraint": null, "activity_regularizer": null, "data_format": "channels_last", "kernel_regularizer": null, "name": "block_7_project", "bias_constraint": null, "dilation_rate": [1, 1], "strides": [1, 1], "bias_initializer": {"config": {}, "class_name": "Zeros"}, "trainable": true, "kernel_initializer": {"config": {"distribution": "uniform", "mode": "fan_avg", "scale": 1.0, "seed": null}, "class_name": "VarianceScaling"}, "padding": "same", "filters": 64, "kernel_size": [1, 1], "bias_regularizer": null, "activation": "linear"}, "class_name": "Conv2D", "name": "block_7_project", "inbound_nodes": [[["block_7_depthwise_relu", 0, 0, {}]]]}, {"config": {"axis": -1, "beta_initializer": {"config": {}, "class_name": "Zeros"}, "name": "block_7_project_BN", "epsilon": 0.001, "center": true, "moving_variance_initializer": {"config": {}, "class_name": "Ones"}, "scale": true, "gamma_constraint": null, "beta_regularizer": null, "trainable": true, "gamma_regularizer": null, "momentum": 0.999, "moving_mean_initializer": {"config": {}, "class_name": "Zeros"}, "gamma_initializer": {"config": {}, "class_name": "Ones"}, "beta_constraint": null}, "class_name": "BatchNormalization", "name": "block_7_project_BN", "inbound_nodes": [[["block_7_project", 0, 0, {}]]]}, {"config": {"trainable": true, "name": "block_7_add"}, "class_name": "Add", "name": "block_7_add", "inbound_nodes": [[["block_6_project_BN", 0, 0, {}], ["block_7_project_BN", 0, 0, {}]]]}, {"config": {"use_bias": false, "kernel_constraint": null, "activity_regularizer": null, "data_format": "channels_last", "kernel_regularizer": null, "name": "block_8_expand", "bias_constraint": null, "dilation_rate": [1, 1], "strides": [1, 1], "bias_initializer": {"config": {}, "class_name": "Zeros"}, "trainable": true, "kernel_initializer": {"config": {"distribution": "uniform", "mode": "fan_avg", "scale": 1.0, "seed": null}, "class_name": "VarianceScaling"}, "padding": "same", "filters": 384, "kernel_size": [1, 1], "bias_regularizer": null, "activation": "linear"}, "class_name": "Conv2D", "name": "block_8_expand", "inbound_nodes": [[["block_7_add", 0, 0, {}]]]}, {"config": {"axis": -1, "beta_initializer": {"config": {}, "class_name": "Zeros"}, "name": "block_8_expand_BN", "epsilon": 0.001, "center": true, "moving_variance_initializer": {"config": {}, "class_name": "Ones"}, "scale": true, "gamma_constraint": null, "beta_regularizer": null, "trainable": true, "gamma_regularizer": null, "momentum": 0.999, "moving_mean_initializer": {"config": {}, "class_name": "Zeros"}, "gamma_initializer": {"config": {}, "class_name": "Ones"}, "beta_constraint": null}, "class_name": "BatchNormalization", "name": "block_8_expand_BN", "inbound_nodes": [[["block_8_expand", 0, 0, {}]]]}, {"config": {"negative_slope": 0.0, "max_value": 6.0, "trainable": true, "name": "block_8_expand_relu", "threshold": 0.0}, "class_name": "ReLU", "name": "block_8_expand_relu", "inbound_nodes": [[["block_8_expand_BN", 0, 0, {}]]]}, {"config": {"use_bias": false, "activity_regularizer": null, "depthwise_initializer": {"config": {"distribution": "uniform", "mode": "fan_avg", "scale": 1.0, "seed": null}, "class_name": "VarianceScaling"}, "activation": "linear", "name": "block_8_depthwise", "depthwise_regularizer": null, "dilation_rate": [1, 1], "strides": [1, 1], "bias_initializer": {"config": {}, "class_name": "Zeros"}, "trainable": true, "bias_constraint": null, "padding": "same", "data_format": "channels_last", "kernel_size": [3, 3], "bias_regularizer": null, "depthwise_constraint": null, "depth_multiplier": 1}, "class_name": "DepthwiseConv2D", "name": "block_8_depthwise", "inbound_nodes": [[["block_8_expand_relu", 0, 0, {}]]]}, {"config": {"axis": -1, "beta_initializer": {"config": {}, "class_name": "Zeros"}, "name": "block_8_depthwise_BN", "epsilon": 0.001, "center": true, "moving_variance_initializer": {"config": {}, "class_name": "Ones"}, "scale": true, "gamma_constraint": null, "beta_regularizer": null, "trainable": true, "gamma_regularizer": null, "momentum": 0.999, "moving_mean_initializer": {"config": {}, "class_name": "Zeros"}, "gamma_initializer": {"config": {}, "class_name": "Ones"}, "beta_constraint": null}, "class_name": "BatchNormalization", "name": "block_8_depthwise_BN", "inbound_nodes": [[["block_8_depthwise", 0, 0, {}]]]}, {"config": {"negative_slope": 0.0, "max_value": 6.0, "trainable": true, "name": "block_8_depthwise_relu", "threshold": 0.0}, "class_name": "ReLU", "name": "block_8_depthwise_relu", "inbound_nodes": [[["block_8_depthwise_BN", 0, 0, {}]]]}, {"config": {"use_bias": false, "kernel_constraint": null, "activity_regularizer": null, "data_format": "channels_last", "kernel_regularizer": null, "name": "block_8_project", "bias_constraint": null, "dilation_rate": [1, 1], "strides": [1, 1], "bias_initializer": {"config": {}, "class_name": "Zeros"}, "trainable": true, "kernel_initializer": {"config": {"distribution": "uniform", "mode": "fan_avg", "scale": 1.0, "seed": null}, "class_name": "VarianceScaling"}, "padding": "same", "filters": 64, "kernel_size": [1, 1], "bias_regularizer": null, "activation": "linear"}, "class_name": "Conv2D", "name": "block_8_project", "inbound_nodes": [[["block_8_depthwise_relu", 0, 0, {}]]]}, {"config": {"axis": -1, "beta_initializer": {"config": {}, "class_name": "Zeros"}, "name": "block_8_project_BN", "epsilon": 0.001, "center": true, "moving_variance_initializer": {"config": {}, "class_name": "Ones"}, "scale": true, "gamma_constraint": null, "beta_regularizer": null, "trainable": true, "gamma_regularizer": null, "momentum": 0.999, "moving_mean_initializer": {"config": {}, "class_name": "Zeros"}, "gamma_initializer": {"config": {}, "class_name": "Ones"}, "beta_constraint": null}, "class_name": "BatchNormalization", "name": "block_8_project_BN", "inbound_nodes": [[["block_8_project", 0, 0, {}]]]}, {"config": {"trainable": true, "name": "block_8_add"}, "class_name": "Add", "name": "block_8_add", "inbound_nodes": [[["block_7_add", 0, 0, {}], ["block_8_project_BN", 0, 0, {}]]]}, {"config": {"use_bias": false, "kernel_constraint": null, "activity_regularizer": null, "data_format": "channels_last", "kernel_regularizer": null, "name": "block_9_expand", "bias_constraint": null, "dilation_rate": [1, 1], "strides": [1, 1], "bias_initializer": {"config": {}, "class_name": "Zeros"}, "trainable": true, "kernel_initializer": {"config": {"distribution": "uniform", "mode": "fan_avg", "scale": 1.0, "seed": null}, "class_name": "VarianceScaling"}, "padding": "same", "filters": 384, "kernel_size": [1, 1], "bias_regularizer": null, "activation": "linear"}, "class_name": "Conv2D", "name": "block_9_expand", "inbound_nodes": [[["block_8_add", 0, 0, {}]]]}, {"config": {"axis": -1, "beta_initializer": {"config": {}, "class_name": "Zeros"}, "name": "block_9_expand_BN", "epsilon": 0.001, "center": true, "moving_variance_initializer": {"config": {}, "class_name": "Ones"}, "scale": true, "gamma_constraint": null, "beta_regularizer": null, "trainable": true, "gamma_regularizer": null, "momentum": 0.999, "moving_mean_initializer": {"config": {}, "class_name": "Zeros"}, "gamma_initializer": {"config": {}, "class_name": "Ones"}, "beta_constraint": null}, "class_name": "BatchNormalization", "name": "block_9_expand_BN", "inbound_nodes": [[["block_9_expand", 0, 0, {}]]]}, {"config": {"negative_slope": 0.0, "max_value": 6.0, "trainable": true, "name": "block_9_expand_relu", "threshold": 0.0}, "class_name": "ReLU", "name": "block_9_expand_relu", "inbound_nodes": [[["block_9_expand_BN", 0, 0, {}]]]}, {"config": {"use_bias": false, "activity_regularizer": null, "depthwise_initializer": {"config": {"distribution": "uniform", "mode": "fan_avg", "scale": 1.0, "seed": null}, "class_name": "VarianceScaling"}, "activation": "linear", "name": "block_9_depthwise", "depthwise_regularizer": null, "dilation_rate": [1, 1], "strides": [1, 1], "bias_initializer": {"config": {}, "class_name": "Zeros"}, "trainable": true, "bias_constraint": null, "padding": "same", "data_format": "channels_last", "kernel_size": [3, 3], "bias_regularizer": null, "depthwise_constraint": null, "depth_multiplier": 1}, "class_name": "DepthwiseConv2D", "name": "block_9_depthwise", "inbound_nodes": [[["block_9_expand_relu", 0, 0, {}]]]}, {"config": {"axis": -1, "beta_initializer": {"config": {}, "class_name": "Zeros"}, "name": "block_9_depthwise_BN", "epsilon": 0.001, "center": true, "moving_variance_initializer": {"config": {}, "class_name": "Ones"}, "scale": true, "gamma_constraint": null, "beta_regularizer": null, "trainable": true, "gamma_regularizer": null, "momentum": 0.999, "moving_mean_initializer": {"config": {}, "class_name": "Zeros"}, "gamma_initializer": {"config": {}, "class_name": "Ones"}, "beta_constraint": null}, "class_name": "BatchNormalization", "name": "block_9_depthwise_BN", "inbound_nodes": [[["block_9_depthwise", 0, 0, {}]]]}, {"config": {"negative_slope": 0.0, "max_value": 6.0, "trainable": true, "name": "block_9_depthwise_relu", "threshold": 0.0}, "class_name": "ReLU", "name": "block_9_depthwise_relu", "inbound_nodes": [[["block_9_depthwise_BN", 0, 0, {}]]]}, {"config": {"use_bias": false, "kernel_constraint": null, "activity_regularizer": null, "data_format": "channels_last", "kernel_regularizer": null, "name": "block_9_project", "bias_constraint": null, "dilation_rate": [1, 1], "strides": [1, 1], "bias_initializer": {"config": {}, "class_name": "Zeros"}, "trainable": true, "kernel_initializer": {"config": {"distribution": "uniform", "mode": "fan_avg", "scale": 1.0, "seed": null}, "class_name": "VarianceScaling"}, "padding": "same", "filters": 64, "kernel_size": [1, 1], "bias_regularizer": null, "activation": "linear"}, "class_name": "Conv2D", "name": "block_9_project", "inbound_nodes": [[["block_9_depthwise_relu", 0, 0, {}]]]}, {"config": {"axis": -1, "beta_initializer": {"config": {}, "class_name": "Zeros"}, "name": "block_9_project_BN", "epsilon": 0.001, "center": true, "moving_variance_initializer": {"config": {}, "class_name": "Ones"}, "scale": true, "gamma_constraint": null, "beta_regularizer": null, "trainable": true, "gamma_regularizer": null, "momentum": 0.999, "moving_mean_initializer": {"config": {}, "class_name": "Zeros"}, "gamma_initializer": {"config": {}, "class_name": "Ones"}, "beta_constraint": null}, "class_name": "BatchNormalization", "name": "block_9_project_BN", "inbound_nodes": [[["block_9_project", 0, 0, {}]]]}, {"config": {"trainable": true, "name": "block_9_add"}, "class_name": "Add", "name": "block_9_add", "inbound_nodes": [[["block_8_add", 0, 0, {}], ["block_9_project_BN", 0, 0, {}]]]}, {"config": {"use_bias": false, "kernel_constraint": null, "activity_regularizer": null, "data_format": "channels_last", "kernel_regularizer": null, "name": "block_10_expand", "bias_constraint": null, "dilation_rate": [1, 1], "strides": [1, 1], "bias_initializer": {"config": {}, "class_name": "Zeros"}, "trainable": true, "kernel_initializer": {"config": {"distribution": "uniform", "mode": "fan_avg", "scale": 1.0, "seed": null}, "class_name": "VarianceScaling"}, "padding": "same", "filters": 384, "kernel_size": [1, 1], "bias_regularizer": null, "activation": "linear"}, "class_name": "Conv2D", "name": "block_10_expand", "inbound_nodes": [[["block_9_add", 0, 0, {}]]]}, {"config": {"axis": -1, "beta_initializer": {"config": {}, "class_name": "Zeros"}, "name": "block_10_expand_BN", "epsilon": 0.001, "center": true, "moving_variance_initializer": {"config": {}, "class_name": "Ones"}, "scale": true, "gamma_constraint": null, "beta_regularizer": null, "trainable": true, "gamma_regularizer": null, "momentum": 0.999, "moving_mean_initializer": {"config": {}, "class_name": "Zeros"}, "gamma_initializer": {"config": {}, "class_name": "Ones"}, "beta_constraint": null}, "class_name": "BatchNormalization", "name": "block_10_expand_BN", "inbound_nodes": [[["block_10_expand", 0, 0, {}]]]}, {"config": {"negative_slope": 0.0, "max_value": 6.0, "trainable": true, "name": "block_10_expand_relu", "threshold": 0.0}, "class_name": "ReLU", "name": "block_10_expand_relu", "inbound_nodes": [[["block_10_expand_BN", 0, 0, {}]]]}, {"config": {"use_bias": false, "activity_regularizer": null, "depthwise_initializer": {"config": {"distribution": "uniform", "mode": "fan_avg", "scale": 1.0, "seed": null}, "class_name": "VarianceScaling"}, "activation": "linear", "name": "block_10_depthwise", "depthwise_regularizer": null, "dilation_rate": [1, 1], "strides": [1, 1], "bias_initializer": {"config": {}, "class_name": "Zeros"}, "trainable": true, "bias_constraint": null, "padding": "same", "data_format": "channels_last", "kernel_size": [3, 3], "bias_regularizer": null, "depthwise_constraint": null, "depth_multiplier": 1}, "class_name": "DepthwiseConv2D", "name": "block_10_depthwise", "inbound_nodes": [[["block_10_expand_relu", 0, 0, {}]]]}, {"config": {"axis": -1, "beta_initializer": {"config": {}, "class_name": "Zeros"}, "name": "block_10_depthwise_BN", "epsilon": 0.001, "center": true, "moving_variance_initializer": {"config": {}, "class_name": "Ones"}, "scale": true, "gamma_constraint": null, "beta_regularizer": null, "trainable": true, "gamma_regularizer": null, "momentum": 0.999, "moving_mean_initializer": {"config": {}, "class_name": "Zeros"}, "gamma_initializer": {"config": {}, "class_name": "Ones"}, "beta_constraint": null}, "class_name": "BatchNormalization", "name": "block_10_depthwise_BN", "inbound_nodes": [[["block_10_depthwise", 0, 0, {}]]]}, {"config": {"negative_slope": 0.0, "max_value": 6.0, "trainable": true, "name": "block_10_depthwise_relu", "threshold": 0.0}, "class_name": "ReLU", "name": "block_10_depthwise_relu", "inbound_nodes": [[["block_10_depthwise_BN", 0, 0, {}]]]}, {"config": {"use_bias": false, "kernel_constraint": null, "activity_regularizer": null, "data_format": "channels_last", "kernel_regularizer": null, "name": "block_10_project", "bias_constraint": null, "dilation_rate": [1, 1], "strides": [1, 1], "bias_initializer": {"config": {}, "class_name": "Zeros"}, "trainable": true, "kernel_initializer": {"config": {"distribution": "uniform", "mode": "fan_avg", "scale": 1.0, "seed": null}, "class_name": "VarianceScaling"}, "padding": "same", "filters": 96, "kernel_size": [1, 1], "bias_regularizer": null, "activation": "linear"}, "class_name": "Conv2D", "name": "block_10_project", "inbound_nodes": [[["block_10_depthwise_relu", 0, 0, {}]]]}, {"config": {"axis": -1, "beta_initializer": {"config": {}, "class_name": "Zeros"}, "name": "block_10_project_BN", "epsilon": 0.001, "center": true, "moving_variance_initializer": {"config": {}, "class_name": "Ones"}, "scale": true, "gamma_constraint": null, "beta_regularizer": null, "trainable": true, "gamma_regularizer": null, "momentum": 0.999, "moving_mean_initializer": {"config": {}, "class_name": "Zeros"}, "gamma_initializer": {"config": {}, "class_name": "Ones"}, "beta_constraint": null}, "class_name": "BatchNormalization", "name": "block_10_project_BN", "inbound_nodes": [[["block_10_project", 0, 0, {}]]]}, {"config": {"use_bias": false, "kernel_constraint": null, "activity_regularizer": null, "data_format": "channels_last", "kernel_regularizer": null, "name": "block_11_expand", "bias_constraint": null, "dilation_rate": [1, 1], "strides": [1, 1], "bias_initializer": {"config": {}, "class_name": "Zeros"}, "trainable": true, "kernel_initializer": {"config": {"distribution": "uniform", "mode": "fan_avg", "scale": 1.0, "seed": null}, "class_name": "VarianceScaling"}, "padding": "same", "filters": 576, "kernel_size": [1, 1], "bias_regularizer": null, "activation": "linear"}, "class_name": "Conv2D", "name": "block_11_expand", "inbound_nodes": [[["block_10_project_BN", 0, 0, {}]]]}, {"config": {"axis": -1, "beta_initializer": {"config": {}, "class_name": "Zeros"}, "name": "block_11_expand_BN", "epsilon": 0.001, "center": true, "moving_variance_initializer": {"config": {}, "class_name": "Ones"}, "scale": true, "gamma_constraint": null, "beta_regularizer": null, "trainable": true, "gamma_regularizer": null, "momentum": 0.999, "moving_mean_initializer": {"config": {}, "class_name": "Zeros"}, "gamma_initializer": {"config": {}, "class_name": "Ones"}, "beta_constraint": null}, "class_name": "BatchNormalization", "name": "block_11_expand_BN", "inbound_nodes": [[["block_11_expand", 0, 0, {}]]]}, {"config": {"negative_slope": 0.0, "max_value": 6.0, "trainable": true, "name": "block_11_expand_relu", "threshold": 0.0}, "class_name": "ReLU", "name": "block_11_expand_relu", "inbound_nodes": [[["block_11_expand_BN", 0, 0, {}]]]}, {"config": {"use_bias": false, "activity_regularizer": null, "depthwise_initializer": {"config": {"distribution": "uniform", "mode": "fan_avg", "scale": 1.0, "seed": null}, "class_name": "VarianceScaling"}, "activation": "linear", "name": "block_11_depthwise", "depthwise_regularizer": null, "dilation_rate": [1, 1], "strides": [1, 1], "bias_initializer": {"config": {}, "class_name": "Zeros"}, "trainable": true, "bias_constraint": null, "padding": "same", "data_format": "channels_last", "kernel_size": [3, 3], "bias_regularizer": null, "depthwise_constraint": null, "depth_multiplier": 1}, "class_name": "DepthwiseConv2D", "name": "block_11_depthwise", "inbound_nodes": [[["block_11_expand_relu", 0, 0, {}]]]}, {"config": {"axis": -1, "beta_initializer": {"config": {}, "class_name": "Zeros"}, "name": "block_11_depthwise_BN", "epsilon": 0.001, "center": true, "moving_variance_initializer": {"config": {}, "class_name": "Ones"}, "scale": true, "gamma_constraint": null, "beta_regularizer": null, "trainable": true, "gamma_regularizer": null, "momentum": 0.999, "moving_mean_initializer": {"config": {}, "class_name": "Zeros"}, "gamma_initializer": {"config": {}, "class_name": "Ones"}, "beta_constraint": null}, "class_name": "BatchNormalization", "name": "block_11_depthwise_BN", "inbound_nodes": [[["block_11_depthwise", 0, 0, {}]]]}, {"config": {"negative_slope": 0.0, "max_value": 6.0, "trainable": true, "name": "block_11_depthwise_relu", "threshold": 0.0}, "class_name": "ReLU", "name": "block_11_depthwise_relu", "inbound_nodes": [[["block_11_depthwise_BN", 0, 0, {}]]]}, {"config": {"use_bias": false, "kernel_constraint": null, "activity_regularizer": null, "data_format": "channels_last", "kernel_regularizer": null, "name": "block_11_project", "bias_constraint": null, "dilation_rate": [1, 1], "strides": [1, 1], "bias_initializer": {"config": {}, "class_name": "Zeros"}, "trainable": true, "kernel_initializer": {"config": {"distribution": "uniform", "mode": "fan_avg", "scale": 1.0, "seed": null}, "class_name": "VarianceScaling"}, "padding": "same", "filters": 96, "kernel_size": [1, 1], "bias_regularizer": null, "activation": "linear"}, "class_name": "Conv2D", "name": "block_11_project", "inbound_nodes": [[["block_11_depthwise_relu", 0, 0, {}]]]}, {"config": {"axis": -1, "beta_initializer": {"config": {}, "class_name": "Zeros"}, "name": "block_11_project_BN", "epsilon": 0.001, "center": true, "moving_variance_initializer": {"config": {}, "class_name": "Ones"}, "scale": true, "gamma_constraint": null, "beta_regularizer": null, "trainable": true, "gamma_regularizer": null, "momentum": 0.999, "moving_mean_initializer": {"config": {}, "class_name": "Zeros"}, "gamma_initializer": {"config": {}, "class_name": "Ones"}, "beta_constraint": null}, "class_name": "BatchNormalization", "name": "block_11_project_BN", "inbound_nodes": [[["block_11_project", 0, 0, {}]]]}, {"config": {"trainable": true, "name": "block_11_add"}, "class_name": "Add", "name": "block_11_add", "inbound_nodes": [[["block_10_project_BN", 0, 0, {}], ["block_11_project_BN", 0, 0, {}]]]}, {"config": {"use_bias": false, "kernel_constraint": null, "activity_regularizer": null, "data_format": "channels_last", "kernel_regularizer": null, "name": "block_12_expand", "bias_constraint": null, "dilation_rate": [1, 1], "strides": [1, 1], "bias_initializer": {"config": {}, "class_name": "Zeros"}, "trainable": true, "kernel_initializer": {"config": {"distribution": "uniform", "mode": "fan_avg", "scale": 1.0, "seed": null}, "class_name": "VarianceScaling"}, "padding": "same", "filters": 576, "kernel_size": [1, 1], "bias_regularizer": null, "activation": "linear"}, "class_name": "Conv2D", "name": "block_12_expand", "inbound_nodes": [[["block_11_add", 0, 0, {}]]]}, {"config": {"axis": -1, "beta_initializer": {"config": {}, "class_name": "Zeros"}, "name": "block_12_expand_BN", "epsilon": 0.001, "center": true, "moving_variance_initializer": {"config": {}, "class_name": "Ones"}, "scale": true, "gamma_constraint": null, "beta_regularizer": null, "trainable": true, "gamma_regularizer": null, "momentum": 0.999, "moving_mean_initializer": {"config": {}, "class_name": "Zeros"}, "gamma_initializer": {"config": {}, "class_name": "Ones"}, "beta_constraint": null}, "class_name": "BatchNormalization", "name": "block_12_expand_BN", "inbound_nodes": [[["block_12_expand", 0, 0, {}]]]}, {"config": {"negative_slope": 0.0, "max_value": 6.0, "trainable": true, "name": "block_12_expand_relu", "threshold": 0.0}, "class_name": "ReLU", "name": "block_12_expand_relu", "inbound_nodes": [[["block_12_expand_BN", 0, 0, {}]]]}, {"config": {"use_bias": false, "activity_regularizer": null, "depthwise_initializer": {"config": {"distribution": "uniform", "mode": "fan_avg", "scale": 1.0, "seed": null}, "class_name": "VarianceScaling"}, "activation": "linear", "name": "block_12_depthwise", "depthwise_regularizer": null, "dilation_rate": [1, 1], "strides": [1, 1], "bias_initializer": {"config": {}, "class_name": "Zeros"}, "trainable": true, "bias_constraint": null, "padding": "same", "data_format": "channels_last", "kernel_size": [3, 3], "bias_regularizer": null, "depthwise_constraint": null, "depth_multiplier": 1}, "class_name": "DepthwiseConv2D", "name": "block_12_depthwise", "inbound_nodes": [[["block_12_expand_relu", 0, 0, {}]]]}, {"config": {"axis": -1, "beta_initializer": {"config": {}, "class_name": "Zeros"}, "name": "block_12_depthwise_BN", "epsilon": 0.001, "center": true, "moving_variance_initializer": {"config": {}, "class_name": "Ones"}, "scale": true, "gamma_constraint": null, "beta_regularizer": null, "trainable": true, "gamma_regularizer": null, "momentum": 0.999, "moving_mean_initializer": {"config": {}, "class_name": "Zeros"}, "gamma_initializer": {"config": {}, "class_name": "Ones"}, "beta_constraint": null}, "class_name": "BatchNormalization", "name": "block_12_depthwise_BN", "inbound_nodes": [[["block_12_depthwise", 0, 0, {}]]]}, {"config": {"negative_slope": 0.0, "max_value": 6.0, "trainable": true, "name": "block_12_depthwise_relu", "threshold": 0.0}, "class_name": "ReLU", "name": "block_12_depthwise_relu", "inbound_nodes": [[["block_12_depthwise_BN", 0, 0, {}]]]}, {"config": {"use_bias": false, "kernel_constraint": null, "activity_regularizer": null, "data_format": "channels_last", "kernel_regularizer": null, "name": "block_12_project", "bias_constraint": null, "dilation_rate": [1, 1], "strides": [1, 1], "bias_initializer": {"config": {}, "class_name": "Zeros"}, "trainable": true, "kernel_initializer": {"config": {"distribution": "uniform", "mode": "fan_avg", "scale": 1.0, "seed": null}, "class_name": "VarianceScaling"}, "padding": "same", "filters": 96, "kernel_size": [1, 1], "bias_regularizer": null, "activation": "linear"}, "class_name": "Conv2D", "name": "block_12_project", "inbound_nodes": [[["block_12_depthwise_relu", 0, 0, {}]]]}, {"config": {"axis": -1, "beta_initializer": {"config": {}, "class_name": "Zeros"}, "name": "block_12_project_BN", "epsilon": 0.001, "center": true, "moving_variance_initializer": {"config": {}, "class_name": "Ones"}, "scale": true, "gamma_constraint": null, "beta_regularizer": null, "trainable": true, "gamma_regularizer": null, "momentum": 0.999, "moving_mean_initializer": {"config": {}, "class_name": "Zeros"}, "gamma_initializer": {"config": {}, "class_name": "Ones"}, "beta_constraint": null}, "class_name": "BatchNormalization", "name": "block_12_project_BN", "inbound_nodes": [[["block_12_project", 0, 0, {}]]]}, {"config": {"trainable": true, "name": "block_12_add"}, "class_name": "Add", "name": "block_12_add", "inbound_nodes": [[["block_11_add", 0, 0, {}], ["block_12_project_BN", 0, 0, {}]]]}, {"config": {"use_bias": false, "kernel_constraint": null, "activity_regularizer": null, "data_format": "channels_last", "kernel_regularizer": null, "name": "block_13_expand", "bias_constraint": null, "dilation_rate": [1, 1], "strides": [1, 1], "bias_initializer": {"config": {}, "class_name": "Zeros"}, "trainable": true, "kernel_initializer": {"config": {"distribution": "uniform", "mode": "fan_avg", "scale": 1.0, "seed": null}, "class_name": "VarianceScaling"}, "padding": "same", "filters": 576, "kernel_size": [1, 1], "bias_regularizer": null, "activation": "linear"}, "class_name": "Conv2D", "name": "block_13_expand", "inbound_nodes": [[["block_12_add", 0, 0, {}]]]}, {"config": {"axis": -1, "beta_initializer": {"config": {}, "class_name": "Zeros"}, "name": "block_13_expand_BN", "epsilon": 0.001, "center": true, "moving_variance_initializer": {"config": {}, "class_name": "Ones"}, "scale": true, "gamma_constraint": null, "beta_regularizer": null, "trainable": true, "gamma_regularizer": null, "momentum": 0.999, "moving_mean_initializer": {"config": {}, "class_name": "Zeros"}, "gamma_initializer": {"config": {}, "class_name": "Ones"}, "beta_constraint": null}, "class_name": "BatchNormalization", "name": "block_13_expand_BN", "inbound_nodes": [[["block_13_expand", 0, 0, {}]]]}, {"config": {"negative_slope": 0.0, "max_value": 6.0, "trainable": true, "name": "block_13_expand_relu", "threshold": 0.0}, "class_name": "ReLU", "name": "block_13_expand_relu", "inbound_nodes": [[["block_13_expand_BN", 0, 0, {}]]]}, {"config": {"padding": [[0, 1], [1, 1]], "data_format": "channels_last", "trainable": true, "name": "block_13_pad"}, "class_name": "ZeroPadding2D", "name": "block_13_pad", "inbound_nodes": [[["block_13_expand_relu", 0, 0, {}]]]}, {"config": {"use_bias": false, "activity_regularizer": null, "depthwise_initializer": {"config": {"distribution": "uniform", "mode": "fan_avg", "scale": 1.0, "seed": null}, "class_name": "VarianceScaling"}, "activation": "linear", "name": "block_13_depthwise", "depthwise_regularizer": null, "dilation_rate": [1, 1], "strides": [2, 2], "bias_initializer": {"config": {}, "class_name": "Zeros"}, "trainable": true, "bias_constraint": null, "padding": "valid", "data_format": "channels_last", "kernel_size": [3, 3], "bias_regularizer": null, "depthwise_constraint": null, "depth_multiplier": 1}, "class_name": "DepthwiseConv2D", "name": "block_13_depthwise", "inbound_nodes": [[["block_13_pad", 0, 0, {}]]]}, {"config": {"axis": -1, "beta_initializer": {"config": {}, "class_name": "Zeros"}, "name": "block_13_depthwise_BN", "epsilon": 0.001, "center": true, "moving_variance_initializer": {"config": {}, "class_name": "Ones"}, "scale": true, "gamma_constraint": null, "beta_regularizer": null, "trainable": true, "gamma_regularizer": null, "momentum": 0.999, "moving_mean_initializer": {"config": {}, "class_name": "Zeros"}, "gamma_initializer": {"config": {}, "class_name": "Ones"}, "beta_constraint": null}, "class_name": "BatchNormalization", "name": "block_13_depthwise_BN", "inbound_nodes": [[["block_13_depthwise", 0, 0, {}]]]}, {"config": {"negative_slope": 0.0, "max_value": 6.0, "trainable": true, "name": "block_13_depthwise_relu", "threshold": 0.0}, "class_name": "ReLU", "name": "block_13_depthwise_relu", "inbound_nodes": [[["block_13_depthwise_BN", 0, 0, {}]]]}, {"config": {"use_bias": false, "kernel_constraint": null, "activity_regularizer": null, "data_format": "channels_last", "kernel_regularizer": null, "name": "block_13_project", "bias_constraint": null, "dilation_rate": [1, 1], "strides": [1, 1], "bias_initializer": {"config": {}, "class_name": "Zeros"}, "trainable": true, "kernel_initializer": {"config": {"distribution": "uniform", "mode": "fan_avg", "scale": 1.0, "seed": null}, "class_name": "VarianceScaling"}, "padding": "same", "filters": 160, "kernel_size": [1, 1], "bias_regularizer": null, "activation": "linear"}, "class_name": "Conv2D", "name": "block_13_project", "inbound_nodes": [[["block_13_depthwise_relu", 0, 0, {}]]]}, {"config": {"axis": -1, "beta_initializer": {"config": {}, "class_name": "Zeros"}, "name": "block_13_project_BN", "epsilon": 0.001, "center": true, "moving_variance_initializer": {"config": {}, "class_name": "Ones"}, "scale": true, "gamma_constraint": null, "beta_regularizer": null, "trainable": true, "gamma_regularizer": null, "momentum": 0.999, "moving_mean_initializer": {"config": {}, "class_name": "Zeros"}, "gamma_initializer": {"config": {}, "class_name": "Ones"}, "beta_constraint": null}, "class_name": "BatchNormalization", "name": "block_13_project_BN", "inbound_nodes": [[["block_13_project", 0, 0, {}]]]}, {"config": {"use_bias": false, "kernel_constraint": null, "activity_regularizer": null, "data_format": "channels_last", "kernel_regularizer": null, "name": "block_14_expand", "bias_constraint": null, "dilation_rate": [1, 1], "strides": [1, 1], "bias_initializer": {"config": {}, "class_name": "Zeros"}, "trainable": true, "kernel_initializer": {"config": {"distribution": "uniform", "mode": "fan_avg", "scale": 1.0, "seed": null}, "class_name": "VarianceScaling"}, "padding": "same", "filters": 960, "kernel_size": [1, 1], "bias_regularizer": null, "activation": "linear"}, "class_name": "Conv2D", "name": "block_14_expand", "inbound_nodes": [[["block_13_project_BN", 0, 0, {}]]]}, {"config": {"axis": -1, "beta_initializer": {"config": {}, "class_name": "Zeros"}, "name": "block_14_expand_BN", "epsilon": 0.001, "center": true, "moving_variance_initializer": {"config": {}, "class_name": "Ones"}, "scale": true, "gamma_constraint": null, "beta_regularizer": null, "trainable": true, "gamma_regularizer": null, "momentum": 0.999, "moving_mean_initializer": {"config": {}, "class_name": "Zeros"}, "gamma_initializer": {"config": {}, "class_name": "Ones"}, "beta_constraint": null}, "class_name": "BatchNormalization", "name": "block_14_expand_BN", "inbound_nodes": [[["block_14_expand", 0, 0, {}]]]}, {"config": {"negative_slope": 0.0, "max_value": 6.0, "trainable": true, "name": "block_14_expand_relu", "threshold": 0.0}, "class_name": "ReLU", "name": "block_14_expand_relu", "inbound_nodes": [[["block_14_expand_BN", 0, 0, {}]]]}, {"config": {"use_bias": false, "activity_regularizer": null, "depthwise_initializer": {"config": {"distribution": "uniform", "mode": "fan_avg", "scale": 1.0, "seed": null}, "class_name": "VarianceScaling"}, "activation": "linear", "name": "block_14_depthwise", "depthwise_regularizer": null, "dilation_rate": [1, 1], "strides": [1, 1], "bias_initializer": {"config": {}, "class_name": "Zeros"}, "trainable": true, "bias_constraint": null, "padding": "same", "data_format": "channels_last", "kernel_size": [3, 3], "bias_regularizer": null, "depthwise_constraint": null, "depth_multiplier": 1}, "class_name": "DepthwiseConv2D", "name": "block_14_depthwise", "inbound_nodes": [[["block_14_expand_relu", 0, 0, {}]]]}, {"config": {"axis": -1, "beta_initializer": {"config": {}, "class_name": "Zeros"}, "name": "block_14_depthwise_BN", "epsilon": 0.001, "center": true, "moving_variance_initializer": {"config": {}, "class_name": "Ones"}, "scale": true, "gamma_constraint": null, "beta_regularizer": null, "trainable": true, "gamma_regularizer": null, "momentum": 0.999, "moving_mean_initializer": {"config": {}, "class_name": "Zeros"}, "gamma_initializer": {"config": {}, "class_name": "Ones"}, "beta_constraint": null}, "class_name": "BatchNormalization", "name": "block_14_depthwise_BN", "inbound_nodes": [[["block_14_depthwise", 0, 0, {}]]]}, {"config": {"negative_slope": 0.0, "max_value": 6.0, "trainable": true, "name": "block_14_depthwise_relu", "threshold": 0.0}, "class_name": "ReLU", "name": "block_14_depthwise_relu", "inbound_nodes": [[["block_14_depthwise_BN", 0, 0, {}]]]}, {"config": {"use_bias": false, "kernel_constraint": null, "activity_regularizer": null, "data_format": "channels_last", "kernel_regularizer": null, "name": "block_14_project", "bias_constraint": null, "dilation_rate": [1, 1], "strides": [1, 1], "bias_initializer": {"config": {}, "class_name": "Zeros"}, "trainable": true, "kernel_initializer": {"config": {"distribution": "uniform", "mode": "fan_avg", "scale": 1.0, "seed": null}, "class_name": "VarianceScaling"}, "padding": "same", "filters": 160, "kernel_size": [1, 1], "bias_regularizer": null, "activation": "linear"}, "class_name": "Conv2D", "name": "block_14_project", "inbound_nodes": [[["block_14_depthwise_relu", 0, 0, {}]]]}, {"config": {"axis": -1, "beta_initializer": {"config": {}, "class_name": "Zeros"}, "name": "block_14_project_BN", "epsilon": 0.001, "center": true, "moving_variance_initializer": {"config": {}, "class_name": "Ones"}, "scale": true, "gamma_constraint": null, "beta_regularizer": null, "trainable": true, "gamma_regularizer": null, "momentum": 0.999, "moving_mean_initializer": {"config": {}, "class_name": "Zeros"}, "gamma_initializer": {"config": {}, "class_name": "Ones"}, "beta_constraint": null}, "class_name": "BatchNormalization", "name": "block_14_project_BN", "inbound_nodes": [[["block_14_project", 0, 0, {}]]]}, {"config": {"trainable": true, "name": "block_14_add"}, "class_name": "Add", "name": "block_14_add", "inbound_nodes": [[["block_13_project_BN", 0, 0, {}], ["block_14_project_BN", 0, 0, {}]]]}, {"config": {"use_bias": false, "kernel_constraint": null, "activity_regularizer": null, "data_format": "channels_last", "kernel_regularizer": null, "name": "block_15_expand", "bias_constraint": null, "dilation_rate": [1, 1], "strides": [1, 1], "bias_initializer": {"config": {}, "class_name": "Zeros"}, "trainable": true, "kernel_initializer": {"config": {"distribution": "uniform", "mode": "fan_avg", "scale": 1.0, "seed": null}, "class_name": "VarianceScaling"}, "padding": "same", "filters": 960, "kernel_size": [1, 1], "bias_regularizer": null, "activation": "linear"}, "class_name": "Conv2D", "name": "block_15_expand", "inbound_nodes": [[["block_14_add", 0, 0, {}]]]}, {"config": {"axis": -1, "beta_initializer": {"config": {}, "class_name": "Zeros"}, "name": "block_15_expand_BN", "epsilon": 0.001, "center": true, "moving_variance_initializer": {"config": {}, "class_name": "Ones"}, "scale": true, "gamma_constraint": null, "beta_regularizer": null, "trainable": true, "gamma_regularizer": null, "momentum": 0.999, "moving_mean_initializer": {"config": {}, "class_name": "Zeros"}, "gamma_initializer": {"config": {}, "class_name": "Ones"}, "beta_constraint": null}, "class_name": "BatchNormalization", "name": "block_15_expand_BN", "inbound_nodes": [[["block_15_expand", 0, 0, {}]]]}, {"config": {"negative_slope": 0.0, "max_value": 6.0, "trainable": true, "name": "block_15_expand_relu", "threshold": 0.0}, "class_name": "ReLU", "name": "block_15_expand_relu", "inbound_nodes": [[["block_15_expand_BN", 0, 0, {}]]]}, {"config": {"use_bias": false, "activity_regularizer": null, "depthwise_initializer": {"config": {"distribution": "uniform", "mode": "fan_avg", "scale": 1.0, "seed": null}, "class_name": "VarianceScaling"}, "activation": "linear", "name": "block_15_depthwise", "depthwise_regularizer": null, "dilation_rate": [1, 1], "strides": [1, 1], "bias_initializer": {"config": {}, "class_name": "Zeros"}, "trainable": true, "bias_constraint": null, "padding": "same", "data_format": "channels_last", "kernel_size": [3, 3], "bias_regularizer": null, "depthwise_constraint": null, "depth_multiplier": 1}, "class_name": "DepthwiseConv2D", "name": "block_15_depthwise", "inbound_nodes": [[["block_15_expand_relu", 0, 0, {}]]]}, {"config": {"axis": -1, "beta_initializer": {"config": {}, "class_name": "Zeros"}, "name": "block_15_depthwise_BN", "epsilon": 0.001, "center": true, "moving_variance_initializer": {"config": {}, "class_name": "Ones"}, "scale": true, "gamma_constraint": null, "beta_regularizer": null, "trainable": true, "gamma_regularizer": null, "momentum": 0.999, "moving_mean_initializer": {"config": {}, "class_name": "Zeros"}, "gamma_initializer": {"config": {}, "class_name": "Ones"}, "beta_constraint": null}, "class_name": "BatchNormalization", "name": "block_15_depthwise_BN", "inbound_nodes": [[["block_15_depthwise", 0, 0, {}]]]}, {"config": {"negative_slope": 0.0, "max_value": 6.0, "trainable": true, "name": "block_15_depthwise_relu", "threshold": 0.0}, "class_name": "ReLU", "name": "block_15_depthwise_relu", "inbound_nodes": [[["block_15_depthwise_BN", 0, 0, {}]]]}, {"config": {"use_bias": false, "kernel_constraint": null, "activity_regularizer": null, "data_format": "channels_last", "kernel_regularizer": null, "name": "block_15_project", "bias_constraint": null, "dilation_rate": [1, 1], "strides": [1, 1], "bias_initializer": {"config": {}, "class_name": "Zeros"}, "trainable": true, "kernel_initializer": {"config": {"distribution": "uniform", "mode": "fan_avg", "scale": 1.0, "seed": null}, "class_name": "VarianceScaling"}, "padding": "same", "filters": 160, "kernel_size": [1, 1], "bias_regularizer": null, "activation": "linear"}, "class_name": "Conv2D", "name": "block_15_project", "inbound_nodes": [[["block_15_depthwise_relu", 0, 0, {}]]]}, {"config": {"axis": -1, "beta_initializer": {"config": {}, "class_name": "Zeros"}, "name": "block_15_project_BN", "epsilon": 0.001, "center": true, "moving_variance_initializer": {"config": {}, "class_name": "Ones"}, "scale": true, "gamma_constraint": null, "beta_regularizer": null, "trainable": true, "gamma_regularizer": null, "momentum": 0.999, "moving_mean_initializer": {"config": {}, "class_name": "Zeros"}, "gamma_initializer": {"config": {}, "class_name": "Ones"}, "beta_constraint": null}, "class_name": "BatchNormalization", "name": "block_15_project_BN", "inbound_nodes": [[["block_15_project", 0, 0, {}]]]}, {"config": {"trainable": true, "name": "block_15_add"}, "class_name": "Add", "name": "block_15_add", "inbound_nodes": [[["block_14_add", 0, 0, {}], ["block_15_project_BN", 0, 0, {}]]]}, {"config": {"use_bias": false, "kernel_constraint": null, "activity_regularizer": null, "data_format": "channels_last", "kernel_regularizer": null, "name": "block_16_expand", "bias_constraint": null, "dilation_rate": [1, 1], "strides": [1, 1], "bias_initializer": {"config": {}, "class_name": "Zeros"}, "trainable": true, "kernel_initializer": {"config": {"distribution": "uniform", "mode": "fan_avg", "scale": 1.0, "seed": null}, "class_name": "VarianceScaling"}, "padding": "same", "filters": 960, "kernel_size": [1, 1], "bias_regularizer": null, "activation": "linear"}, "class_name": "Conv2D", "name": "block_16_expand", "inbound_nodes": [[["block_15_add", 0, 0, {}]]]}, {"config": {"axis": -1, "beta_initializer": {"config": {}, "class_name": "Zeros"}, "name": "block_16_expand_BN", "epsilon": 0.001, "center": true, "moving_variance_initializer": {"config": {}, "class_name": "Ones"}, "scale": true, "gamma_constraint": null, "beta_regularizer": null, "trainable": true, "gamma_regularizer": null, "momentum": 0.999, "moving_mean_initializer": {"config": {}, "class_name": "Zeros"}, "gamma_initializer": {"config": {}, "class_name": "Ones"}, "beta_constraint": null}, "class_name": "BatchNormalization", "name": "block_16_expand_BN", "inbound_nodes": [[["block_16_expand", 0, 0, {}]]]}, {"config": {"negative_slope": 0.0, "max_value": 6.0, "trainable": true, "name": "block_16_expand_relu", "threshold": 0.0}, "class_name": "ReLU", "name": "block_16_expand_relu", "inbound_nodes": [[["block_16_expand_BN", 0, 0, {}]]]}, {"config": {"use_bias": false, "activity_regularizer": null, "depthwise_initializer": {"config": {"distribution": "uniform", "mode": "fan_avg", "scale": 1.0, "seed": null}, "class_name": "VarianceScaling"}, "activation": "linear", "name": "block_16_depthwise", "depthwise_regularizer": null, "dilation_rate": [1, 1], "strides": [1, 1], "bias_initializer": {"config": {}, "class_name": "Zeros"}, "trainable": true, "bias_constraint": null, "padding": "same", "data_format": "channels_last", "kernel_size": [3, 3], "bias_regularizer": null, "depthwise_constraint": null, "depth_multiplier": 1}, "class_name": "DepthwiseConv2D", "name": "block_16_depthwise", "inbound_nodes": [[["block_16_expand_relu", 0, 0, {}]]]}, {"config": {"axis": -1, "beta_initializer": {"config": {}, "class_name": "Zeros"}, "name": "block_16_depthwise_BN", "epsilon": 0.001, "center": true, "moving_variance_initializer": {"config": {}, "class_name": "Ones"}, "scale": true, "gamma_constraint": null, "beta_regularizer": null, "trainable": true, "gamma_regularizer": null, "momentum": 0.999, "moving_mean_initializer": {"config": {}, "class_name": "Zeros"}, "gamma_initializer": {"config": {}, "class_name": "Ones"}, "beta_constraint": null}, "class_name": "BatchNormalization", "name": "block_16_depthwise_BN", "inbound_nodes": [[["block_16_depthwise", 0, 0, {}]]]}, {"config": {"negative_slope": 0.0, "max_value": 6.0, "trainable": true, "name": "block_16_depthwise_relu", "threshold": 0.0}, "class_name": "ReLU", "name": "block_16_depthwise_relu", "inbound_nodes": [[["block_16_depthwise_BN", 0, 0, {}]]]}, {"config": {"use_bias": false, "kernel_constraint": null, "activity_regularizer": null, "data_format": "channels_last", "kernel_regularizer": null, "name": "block_16_project", "bias_constraint": null, "dilation_rate": [1, 1], "strides": [1, 1], "bias_initializer": {"config": {}, "class_name": "Zeros"}, "trainable": true, "kernel_initializer": {"config": {"distribution": "uniform", "mode": "fan_avg", "scale": 1.0, "seed": null}, "class_name": "VarianceScaling"}, "padding": "same", "filters": 320, "kernel_size": [1, 1], "bias_regularizer": null, "activation": "linear"}, "class_name": "Conv2D", "name": "block_16_project", "inbound_nodes": [[["block_16_depthwise_relu", 0, 0, {}]]]}, {"config": {"axis": -1, "beta_initializer": {"config": {}, "class_name": "Zeros"}, "name": "block_16_project_BN", "epsilon": 0.001, "center": true, "moving_variance_initializer": {"config": {}, "class_name": "Ones"}, "scale": true, "gamma_constraint": null, "beta_regularizer": null, "trainable": true, "gamma_regularizer": null, "momentum": 0.999, "moving_mean_initializer": {"config": {}, "class_name": "Zeros"}, "gamma_initializer": {"config": {}, "class_name": "Ones"}, "beta_constraint": null}, "class_name": "BatchNormalization", "name": "block_16_project_BN", "inbound_nodes": [[["block_16_project", 0, 0, {}]]]}, {"config": {"use_bias": false, "kernel_constraint": null, "activity_regularizer": null, "data_format": "channels_last", "kernel_regularizer": null, "name": "Conv_1", "bias_constraint": null, "dilation_rate": [1, 1], "strides": [1, 1], "bias_initializer": {"config": {}, "class_name": "Zeros"}, "trainable": true, "kernel_initializer": {"config": {"distribution": "uniform", "mode": "fan_avg", "scale": 1.0, "seed": null}, "class_name": "VarianceScaling"}, "padding": "valid", "filters": 1280, "kernel_size": [1, 1], "bias_regularizer": null, "activation": "linear"}, "class_name": "Conv2D", "name": "Conv_1", "inbound_nodes": [[["block_16_project_BN", 0, 0, {}]]]}, {"config": {"axis": -1, "beta_initializer": {"config": {}, "class_name": "Zeros"}, "name": "Conv_1_bn", "epsilon": 0.001, "center": true, "moving_variance_initializer": {"config": {}, "class_name": "Ones"}, "scale": true, "gamma_constraint": null, "beta_regularizer": null, "trainable": true, "gamma_regularizer": null, "momentum": 0.999, "moving_mean_initializer": {"config": {}, "class_name": "Zeros"}, "gamma_initializer": {"config": {}, "class_name": "Ones"}, "beta_constraint": null}, "class_name": "BatchNormalization", "name": "Conv_1_bn", "inbound_nodes": [[["Conv_1", 0, 0, {}]]]}, {"config": {"negative_slope": 0.0, "max_value": 6.0, "trainable": true, "name": "out_relu", "threshold": 0.0}, "class_name": "ReLU", "name": "out_relu", "inbound_nodes": [[["Conv_1_bn", 0, 0, {}]]]}, {"config": {"data_format": "channels_last", "trainable": true, "name": "flatten_1"}, "class_name": "Flatten", "name": "flatten_1", "inbound_nodes": [[["out_relu", 0, 0, {}]]]}, {"config": {"batch_input_shape": [null, 3], "dtype": "float32", "sparse": false, "name": "input_2"}, "class_name": "InputLayer", "name": "input_2", "inbound_nodes": []}, {"config": {"use_bias": true, "kernel_constraint": null, "activity_regularizer": null, "kernel_regularizer": null, "name": "dense_1", "bias_regularizer": null, "bias_initializer": {"config": {}, "class_name": "Zeros"}, "trainable": true, "kernel_initializer": {"config": {"distribution": "uniform", "mode": "fan_avg", "scale": 1.0, "seed": null}, "class_name": "VarianceScaling"}, "units": 512, "activation": "linear", "bias_constraint": null}, "class_name": "Dense", "name": "dense_1", "inbound_nodes": [[["flatten_1", 0, 0, {}]]]}, {"config": {"axis": 1, "trainable": true, "name": "concatenate_1"}, "class_name": "Concatenate", "name": "concatenate_1", "inbound_nodes": [[["input_2", 0, 0, {}], ["dense_1", 0, 0, {}]]]}, {"config": {"use_bias": true, "kernel_constraint": null, "activity_regularizer": null, "kernel_regularizer": null, "name": "dense_2", "bias_regularizer": null, "bias_initializer": {"config": {}, "class_name": "Zeros"}, "trainable": true, "kernel_initializer": {"config": {"distribution": "uniform", "mode": "fan_avg", "scale": 1.0, "seed": null}, "class_name": "VarianceScaling"}, "units": 2, "activation": "linear", "bias_constraint": null}, "class_name": "Dense", "name": "dense_2", "inbound_nodes": [[["concatenate_1", 0, 0, {}]]]}]}, "class_name": "Model", "backend": "tensorflow", "keras_version": "2.2.4"}